satellite_sim/telemetry/ai/models/lstm_autoencoder_25f.pt (torch, 966026 bytes, 20 tensors)

encoder.weight_ih_l0 f4 [512, 25]
0	0x3cc539f8	0.024075493
1	0xbee06e2e	-0.4383406
2	0x3e1166e4	0.14199406
3	0xbeea9e49	-0.45823887
4	0x3e70ef72	0.23528841
5	0xbd658366	-0.056033514
6	0x3dfb7645	0.122784175
7	0xbcbc500e	-0.022987392
8	0xbedca25c	-0.4309262
9	0xbdc522ce	-0.09625779
10	0xbd1352a4	-0.035967484
11	0x3d43aae2	0.04777039
12	0xbdb86183	-0.09002974
13	0xbe441363	-0.1914802
14	0xbde9171f	-0.11381363
15	0x3e82c676	0.2554204
16	0xbd8d160e	-0.06888972
17	0xbe5e20f5	-0.2169226
18	0xbe018691	-0.1264899
19	0x3e9a01c2	0.30079466
20	0xbea42bf7	-0.32064793
21	0x3d2d1eba	0.04226563
22	0x3bce272b	0.0062912903
23	0x3e88c72a	0.2671445
24	0x3e0a26d3	0.13491373
25	0x3e01e0d2	0.12683418
26	0xbe85eb30	-0.26155996
27	0x3ed677e4	0.41888344
28	0xbee97cf0	-0.45603132
29	0x3ea77568	0.3270676
30	0xbe40fd8e	-0.18846723
31	0xbb6d4908	-0.003620686
32	0x3e3c6aae	0.1840007
33	0x3e4fd3b5	0.20295604
34	0xbe02a572	-0.12758425
35	0x3f4f5beb	0.8099963
36	0x3cf6a5b7	0.030108316
37	0x3da94bf4	0.0826644
38	0xbdd60b4e	-0.10451375
39	0xbe1f72b0	-0.15571094
40	0x3e41902e	0.18902656
41	0xbd326691	-0.043554846
42	0xbeb26fbf	-0.3485088
43	0xbe7ef419	-0.24897803
44	0xbefd7e96	-0.4951064
45	0xbcf26e31	-0.029593559
46	0xbe824798	-0.25445247
47	0xbe891e85	-0.26781097
48	0x3e9ab960	0.30219555
49	0x3e00066e	0.12502453
50	0xbe083ba0	-0.13303995
51	0xbea399d6	-0.31953305
52	0x3be19d5f	0.006885215
53	0xbd94f1c0	-0.07272673
54	0x3e1dd307	0.15412532
55	0xbcab7ca5	-0.020933459
56	0x3b33e887	0.002745183
57	0x3b9610a7	0.004579622
58	0xbe8cb6dc	-0.2748326
59	0xbdd0ffbb	-0.10205027
60	0xbd20f264	-0.03929366
61	0xbe8f4aa8	-0.27986646
62	0xbeb9e90a	-0.36310607
63	0xbdb37092	-0.087617055
64	0x3cbfebcd	0.023427868
65	0x3f0b5d82	0.54439557
66	0x3cc6d1e0	0.024269998
67	0x3e09ff89	0.13476385
68	0x3e490d8d	0.19634075
69	0xbf2df702	-0.6795503
70	0x3d3be855	0.045875866
71	0xbd02ad33	-0.031903457
72	0x3c9a1bbb	0.018812051
73	0x3e98cdda	0.29844552
74	0x3d4acfb5	0.04951449
75	0xbb3cb68a	-0.0028795325
76	0x3e538007	0.20654307
77	0xbbafc641	-0.00536421
78	0x3e6fc208	0.23413861
79	0xbace0867	-0.0015719057
80	0x3ec6aaf7	0.3880231
81	0x3e8f48c6	0.2798521
82	0xbd9ee5ab	-0.077586494
83	0xbd52055d	-0.051274646
84	0xbe9769bf	-0.29572865
85	0x3d99742b	0.074928604
86	0xbd48871a	-0.048956968
87	0xbd8a31e1	-0.06747795
88	0xbdce3ed9	-0.10070581
89	0xbe11dc93	-0.14244299
90	0xbc39c613	-0.0113387285
91	0x3d226002	0.03964234
92	0x3e7d4756	0.24734244
93	0x3e5c79a6	0.2153078
94	0x3efe78f0	0.49701643
95	0x3ef3c492	0.4761091
96	0x3eaf0d03	0.34189615
97	0x3ec73d59	0.38913992
98	0xbddee461	-0.108834036
99	0xbe179957	-0.14804588
100	0xbdf450ed	-0.11929498
101	0x3e0ff783	0.14059262
102	0x3e933ba9	0.28756455
103	0xbdd2d3f1	-0.10294331
104	0xbf3f8f42	-0.7482797
105	0x3a9106da	0.0011064664
106	0x3e007697	0.12545238
107	0x3d1706ff	0.036871906
108	0x3dd0876b	0.10182079
109	0xbea845ad	-0.32865658
110	0xbe8d15ef	-0.27555797
111	0xbd46a430	-0.048496425
112	0x3bc56498	0.0060239546
113	0xbe59bb17	-0.21262775
114	0xbde7ba0f	-0.11314785
115	0xbdeca12c	-0.115541786
116	0x3ccd15f4	0.025034882
117	0xbf22cea7	-0.63596576
118	0xbf0b0d95	-0.543176
119	0x3e5aad65	0.21355207
120	0xbe96f310	-0.29482317
121	0xbe6e1625	-0.23250635
122	0xbdf51544	-0.11966947
123	0x3d811a5b	0.06303855
124	0x3dab3226	0.083591744
125	0xbe717e9c	-0.23583454
126	0xbf09bed4	-0.53806806
127	0x3ec1dfc7	0.3786604
128	0xbe860220	-0.26173496
129	0x3d8a111f	0.06741547
130	0xbdc95292	-0.09830202
131	0x3d66f901	0.056389812
132	0xbea890bd	-0.32922927
133	0xbb046d0a	-0.0020206594
134	0xbe31676c	-0.17324609
135	0xbe89c366	-0.2690689
136	0xbdaadb81	-0.08342648
137	0x3c601bd5	0.013678511
138	0xbdb83999	-0.08995361
139	0xbd21c04c	-0.03949003
140	0x3f21bd4d	0.63179475
141	0xbcb36960	-0.021900833
142	0x3d197c85	0.037472267
143	0x3d8c6c70	0.0685662
144	0xbf98b1b2	-1.1929228
145	0x3e14fb93	0.14549093
146	0x3c5db150	0.013531044
147	0x3e1e6a68	0.15470278
148	0x3f044e23	0.5168173
149	0xbd1a6169	-0.037690554
150	0xbeaaeba0	-0.33382893
151	0xbeb8757f	-0.36027142
152	0x3d9eac65	0.077477254
153	0xbe624e97	-0.22100292
154	0x3e2afff6	0.16699204
155	0xbcf6bbe1	-0.030118885
156	0x3d31706b	0.0433201
157	0xbdce0ae2	-0.100606695
158	0xbdd4c2d4	-0.10388723
159	0x3ddf5862	0.109055296
160	0x3e3c6914	0.18399459
161	0x3d37ecfe	0.044903748
162	0x3e5101ef	0.20410894
163	0x3d590701	0.052985195
164	0xbcbad451	-0.022806318
165	0xbda35576	-0.07975285
166	0x3d986703	0.07441523
167	0x3d2b3cca	0.04180602
168	0xbd34ac87	-0.044109847
169	0xbf4754a9	-0.77863556
170	0xbc7b4fdb	-0.015338863
171	0xbcefdad0	-0.029279143
172	0xbd967698	-0.07346839
173	0x3d7b1a47	0.061304357
174	0x3cf6b59e	0.030115899
175	0x3ba02191	0.004886814
176	0x3d10edd9	0.03538308
177	0x3e85fc32	0.26168972
178	0xbd1cdb52	-0.038295098
179	0xbd8ef6a3	-0.06980636
180	0xbd7c57bb	-0.061607104
181	0x3deddf09	0.11614806
182	0xbedc679f	-0.43047807
183	0xbe0e04b4	-0.13868982
184	0xbf2e3427	-0.6804833
185	0x3de2cbd4	0.110740334
186	0xbe172f59	-0.14764155
187	0xbd8716a1	-0.06596113
188	0xbb50c9c1	-0.0031858536
189	0xbceccff0	-0.028907746
190	0xbb2d80cd	-0.0026474476
191	0x3d210e8a	0.039320506
192	0x3e0aefcd	0.13568039
193	0x3e164037	0.14672934
194	0xbef60a36	-0.48054665
195	0xbeadec10	-0.33969164
196	0xbdf7d735	-0.12101594
197	0xbdce98eb	-0.100877605
198	0xbe31eb75	-0.17374976
199	0x3c1c6adf	0.009546964
200	0xbf0302cc	-0.5117614
201	0xbeb94206	-0.36183184
202	0x3ded3ec1	0.11584235
203	0xbe51cd8c	-0.20488566
204	0xbd95c80a	-0.07313545
205	0x3e54fb2f	0.20798944
206	0x3ef6819c	0.4814576
207	0x3ec03f8e	0.37548488
208	0x3ec2e982	0.38068777
209	0xbf4abf76	-0.79198396
210	0xbddee52d	-0.108835556
211	0xbdb694ef	-0.089151256
212	0x3e2de86d	0.16983195
213	0xbe06c45a	-0.1316084
214	0xbd9b04f8	-0.07569307
215	0x3f00ccb6	0.50312364
216	0x3d33cd12	0.043896742
217	0x3ea12fbe	0.31481737
218	0x3ec52456	0.38504285
219	0xbe856b8d	-0.26058617
220	0xbd31919a	-0.043351747
221	0x3d8ec570	0.06971252
222	0x3da68920	0.08131623
223	0x3ef31a0f	0.4748082
224	0x3e83da29	0.2575238
225	0xbea060d8	-0.31323886
226	0x3ea2e179	0.31812647
227	0xbe0f873b	-0.1401643
228	0x3f0c96d5	0.5491765
229	0x3f0331b0	0.5124769
230	0xbdc34764	-0.09535101
231	0xbf1fb701	-0.62388617
232	0xbe1028f0	-0.14078116
233	0xbe952f11	-0.2913747
234	0xbf3596f5	-0.7093347
235	0xbf094467	-0.5362
236	0xbe855624	-0.26042283
237	0xbe25fc4c	-0.16209525
238	0x3d91b892	0.07115282
239	0x3da40b89	0.08010013
240	0x3e5eddd6	0.21764311
241	0x3cac9288	0.021065965
242	0xbec5b952	-0.3861795
243	0xbed80701	-0.42192844
244	0xbeb21142	-0.34778792
245	0xbdce606d	-0.100769855
246	0xbe480ffa	-0.19537345
247	0xbf2114db	-0.6292245
248	0x3e82a029	0.25512818
249	0x3e39bb0b	0.18137757
250	0xbe2a23a3	-0.16615157
251	0xbf12d095	-0.5734952
252	0x3eb4611c	0.3523034
253	0xbf59d153	-0.8508503
254	0x3bdb8650	0.006699361
255	0xbd2ad032	-0.041702457

encoder.weight_hh_l0 f4 [512, 128]
0	0xbd0984e9	-0.03357402
1	0x3e09b144	0.13446528
2	0x3d206955	0.039162952
3	0xbe17d0a1	-0.1482568
4	0x3e5b178c	0.21395701
5	0xbf0b97cc	-0.545285
6	0x3d86dd66	0.06585197
7	0xbc71aed3	-0.014751154
8	0xbdc183e8	-0.09448987
9	0xbe57c386	-0.2107068
10	0x3e171920	0.14755678
11	0x3d11d2f1	0.03560156
12	0x3f00c919	0.5030685
13	0x3f4cf5d1	0.80062586
14	0xbe8555ae	-0.2604193
15	0xbef6d252	-0.48207337
16	0xbebbdf44	-0.36693776
17	0xbcc09637	-0.023509128
18	0x3e076509	0.13222136
19	0xbe47a813	-0.19497709
20	0x3bb0220a	0.0053751515
21	0x3e74e409	0.23915114
22	0xbd3f8f32	-0.04676742
23	0x3e19166b	0.14949958
24	0xbdcc2dfa	-0.09969707
25	0xbd2fbcf0	-0.042904794
26	0x3e3f2170	0.18665099
27	0x3e96f629	0.2948468
28	0xbe0bcc2c	-0.13652104
29	0x3e29724e	0.1654751
30	0xbe281318	-0.16413534
31	0xbe0f74ba	-0.14009371
32	0xbea2f209	-0.31825283
33	0xbda70543	-0.081553005
34	0xbe63c473	-0.22242908
35	0x3e057125	0.13031442
36	0x3ef6bdd0	0.4819169
37	0x3dadb208	0.084812224
38	0xbe3fc9f3	-0.18729381
39	0xbddb3675	-0.10703746
40	0x3ddaea3e	0.106892094
41	0xbe36eb34	-0.1786316
42	0x3c5740c4	0.013138
43	0x3d4e4bbe	0.050365202
44	0x3e537560	0.20650244
45	0x3f27d2a9	0.65555817
46	0x3e436703	0.19082265
47	0x3e8e0295	0.27736345
48	0xbe93bc38	-0.28854537
49	0xbe2bb7fa	-0.167694
50	0xbef26555	-0.47342935
51	0x3e7eb44e	0.24873468
52	0xbd56aca9	-0.052410755
53	0x3c7d4393	0.0154580055
54	0xbe2f25ae	-0.17104217
55	0xbde3cded	-0.111232616
56	0x3f6b840a	0.9199835
57	0x3e7b67ed	0.24551363
58	0xbb7bc14a	-0.003841477
59	0xbd165d7b	-0.036710244
60	0xbd882fc1	-0.06649733
61	0xbe8ea3b9	-0.27859285
62	0xbe7f5d11	-0.24937846
63	0x3ebe2164	0.3713485
64	0x3d6259c4	0.05526139
65	0xbc5246a7	-0.012834228
66	0xbe06bb9b	-0.13157503
67	0xbd4de13f	-0.05026364
68	0x3eef69cb	0.467604
69	0x3e9d4d9d	0.30723277
70	0xbdfbc3e7	-0.12293225
71	0x3e04c392	0.12965229
72	0x3d7c5d5a	0.061612464
73	0xbdab8f50	-0.08376944
74	0x3db1438f	0.08655464
75	0x3e9bd2dd	0.30434313
76	0x3d8e69be	0.069537625
77	0xbdead85c	-0.114670485
78	0xbf10dcb5	-0.5658677
79	0x3cced188	0.025246397
80	0xbda62972	-0.08113374
81	0x3c8cbbb2	0.017179344
82	0xbcabd2b1	-0.020974489
83	0xbe5169e2	-0.20450547
84	0x3e571430	0.21003795
85	0xbd9d5bf5	-0.07683555
86	0x3e2b399a	0.16721192
87	0xbebdd34e	-0.37075275
88	0x3e91a38c	0.2844509
89	0x3da88b79	0.08229727
90	0xbd93c8a0	-0.072160006
91	0xbdb036d1	-0.086042054
92	0xbe8e47ac	-0.27789056
93	0xbebdf463	-0.37100515
94	0xbe0f77db	-0.14010565
95	0xbbfcb1fa	-0.007711646
96	0xbe78c842	-0.24295142
97	0x3e6d48c7	0.23172294
98	0xbef19985	-0.4718744
99	0xbcc66feb	-0.024223289
100	0x3d9791a5	0.07400826
101	0x3e2f29fc	0.1710586
102	0xbea90bc5	-0.33016792
103	0x3e0fbd3a	0.14037028
104	0xbd981572	-0.07425965
105	0xbe43202b	-0.1905524
106	0x3e76df39	0.2410859
107	0xbdc436eb	-0.09580787
108	0xbe2e9109	-0.17047514
109	0x3d69c046	0.057068132
110	0xbea3eb18	-0.320153
111	0x3f0afcaa	0.54291785
112	0xbe96efc5	-0.29479805
113	0x3db58c63	0.08864667
114	0xbe390f8a	-0.18072334
115	0xbd60e416	-0.05490502
116	0xbed78c3b	-0.42099175
117	0x3df327a6	0.11872797
118	0x3ea504d3	0.32230243
119	0xbeff62f1	-0.49880174
120	0x3e2828e3	0.16421847
121	0x3e014c47	0.12626754
122	0x3e7a45e0	0.24440718
123	0xbefb0009	-0.49023464
124	0x3ea023bf	0.31277272
125	0x3d7a1000	0.061050415
126	0x3e53f8ca	0.20700374
127	0xbd8afaa0	-0.06786084
128	0x3dddab7f	0.10823726
129	0xbed8721b	-0.42274556
130	0xbe799996	-0.24374995
131	0xbd286667	-0.041113283
132	0xbeb12159	-0.34595755
133	0xbf64d829	-0.89392334
134	0x3eab5ba0	0.33468342
135	0x3dfe0a6e	0.12404333
136	0xbdda47de	-0.10658239
137	0xbf03f03b	-0.5153844
138	0xbe86315d	-0.26209536
139	0x3ea86105	0.3288652
140	0xbd604e07	-0.054761913
141	0x3e9b2610	0.30302477
142	0xbebbc8a2	-0.36676508
143	0x3e67eafa	0.2264823
144	0xbe7b8ff8	-0.24566638
145	0x3e8ac169	0.27100685
146	0x3f038ebb	0.51389664
147	0x3e85a241	0.26100352
148	0xbd9ea211	-0.077457555
149	0x3ea216fa	0.31658155
150	0x3da615ed	0.08109651
151	0x3ebc7c73	0.36813697
152	0xbe122426	-0.14271602
153	0x3e3cd313	0.18439893
154	0x3ed85d84	0.42258847
155	0x3ec55d1d	0.38547602
156	0xbe448451	-0.191911
157	0xbf59470c	-0.84874034
158	0xbeecb9bb	-0.4623545
159	0xbec36e34	-0.38170016
160	0xbeb06e7a	-0.34459287
161	0xbe1faa96	-0.15592417
162	0xbeb2ac92	-0.34897286
163	0xbc968011	-0.018371614
164	0x3e50b724	0.20382363
165	0xbcd403b5	-0.025880674
166	0x3dde3dd5	0.10851637
167	0x3e6e6b75	0.23283179
168	0x3ee49eee	0.44652504
169	0x3f388b00	0.720871
170	0x3e5929f1	0.21207406
171	0xbe86784c	-0.26263654
172	0x3f1f4f8d	0.6223076
173	0xbe9ac3e2	-0.30227572
174	0x3edeb24c	0.43495405
175	0xbef4106c	-0.4766878
176	0xbebd7361	-0.3700209
177	0xbe982b41	-0.297205
178	0x3d9d86ff	0.07691764
179	0x3db8c5bf	0.09022092
180	0xbe2422ae	-0.16028854
181	0x3e3cbadb	0.18430655
182	0xbf61f6b9	-0.88267094
183	0xbeb19e5d	-0.34691134
184	0x3da82541	0.082102306
185	0x3f57cf24	0.84300447
186	0x3f078ab8	0.52946043
187	0xbe5b0583	-0.21388821
188	0x3ea5fd42	0.32419783
189	0xbe6791fe	-0.22614285
190	0x3e656947	0.22403441
191	0x3e469512	0.19392803
192	0x3dc5d967	0.09660607
193	0x3f63de3d	0.89010984
194	0x3e4ea150	0.20178723
195	0xbf3c3fde	-0.73534954
196	0x3d93b925	0.07213048
197	0x3ec9d977	0.39423725
198	0xbef23ed7	-0.47313568
199	0xbbec350b	-0.0072084717
200	0x3e52374f	0.20528911
201	0xbe26a4a9	-0.1627375
202	0x3dc77ba5	0.0974038
203	0x3f6f03fa	0.9336544
204	0x3d06f769	0.032950792
205	0x3f08507d	0.53247815
206	0xbe60d32f	-0.2195556
207	0x3e43b1e5	0.1911083
208	0x3e635bdd	0.22203012
209	0xbe0ff162	-0.14056924
210	0xbd595941	-0.053063635
211	0xbe04aa70	-0.12955642
212	0x3e0b0ddb	0.13579504
213	0xbe887ae9	-0.26656273
214	0x3d398831	0.045295898
215	0xbeab8eb1	-0.33507302
216	0xbe708ec5	-0.23491962
217	0x3e97b46a	0.29629833
218	0x3cda0304	0.026612766
219	0x3d6abcb5	0.05730887
220	0xbf00745a	-0.5017754
221	0xbf2434c8	-0.6414304
222	0xbd8e61fb	-0.06952282
223	0xbf1afa26	-0.60537946
224	0xbe5a9f8e	-0.21349928
225	0xbf1509ed	-0.5821827
226	0xbdf35ede	-0.11883329
227	0xbec47862	-0.38373095
228	0x3e181acb	0.1485397
229	0xbca585d4	-0.020205416
230	0xbe15e6d6	-0.14638838
231	0xbd0c322a	-0.034227528
232	0xbec39bab	-0.38204703
233	0x3ecbb736	0.39788216
234	0x3e62ba8a	0.22141472
235	0xbde4408f	-0.11145126
236	0xbda2a77b	-0.079421006
237	0x3d5a824a	0.05334691
238	0xbef7e9f6	-0.48420686
239	0x3efc1d6e	0.49241203
240	0xbe10dd0f	-0.14146827
241	0x3e023aed	0.12717791
242	0xbf09c85f	-0.5382137
243	0x3fac3c75	1.345595
244	0xbdbd1ce5	-0.09234027
245	0xbf69e660	-0.9136715
246	0x3e84b15b	0.2591656
247	0xbe36b57d	-0.1784267
248	0xbf00a5ee	-0.5025319
249	0x3df54db9	0.11977715
250	0xbe47832b	-0.1948363
251	0xbe29c45e	-0.16578814
252	0x3ea793dd	0.32729998
253	0xbd0821bf	-0.033235308
254	0xbec52497	-0.38504478
255	0x3eabc482	0.3354836

encoder.bias_ih_l0 f4 [512]
0	0xbf01cdc8	-0.5070462
1	0xbf0d2b59	-0.5514427
2	0xbf0d18e1	-0.5511609
3	0xbf095b67	-0.53655094
4	0xbef2b8b3	-0.4740654
5	0xbe1e23d7	-0.1544336
6	0xbf82ba79	-1.0213157
7	0xbf17b94d	-0.5926712
8	0xbf586ae6	-0.84538114
9	0xbedfd16c	-0.43714464
10	0xbf0686ac	-0.5254924
11	0xbf2e3e0b	-0.6806342
12	0xbddf8207	-0.109134726
13	0xbf4e4f81	-0.80590063
14	0xbedd9f73	-0.43285713
15	0xbf793806	-0.9735111
16	0xbef01a9d	-0.46895304
17	0xbe1bc03d	-0.15210052
18	0xbe9fc5fb	-0.31205735
19	0xbeb97c15	-0.3622748
20	0xbed75277	-0.42055103
21	0xbf8f8b8b	-1.121446
22	0xbecac779	-0.3960531
23	0xbeeb34cb	-0.45938715
24	0xbee29e1e	-0.4426126
25	0xbeff770f	-0.49895522
26	0xbf330836	-0.69934404
27	0xbe55f9cd	-0.20896073
28	0xbf99c5a0	-1.2013435
29	0xbe21b2ad	-0.15790816
30	0xbf9703ef	-1.1798075
31	0xbf67c238	-0.9053073
32	0xbefb7d83	-0.49119195
33	0xbeea6de4	-0.45786965
34	0xbebcb2a2	-0.36855036
35	0xbf624698	-0.8838897
36	0xbeb6e460	-0.3572111
37	0xbf36871b	-0.71299905
38	0xbebb3c88	-0.3656962
39	0xbf84f882	-1.0388339
40	0xbf4db564	-0.80354905
41	0xbef26dd1	-0.47349408
42	0xbf1e8a3a	-0.61929667
43	0xbe8d48af	-0.27594516
44	0xbe9c49b6	-0.30524987
45	0xbedeff1c	-0.43554008
46	0xbf2e21f5	-0.68020564
47	0xbf257251	-0.6462756
48	0xbf52b114	-0.8230145
49	0xbca91ce4	-0.020643659
50	0xbf69711b	-0.9118821
51	0xbf1e5cae	-0.6186017
52	0xbe6cb33f	-0.23115252
53	0xbea91dbd	-0.330305
54	0xbe3ccb2a	-0.18436876
55	0xbe62c56e	-0.22145626
56	0xbf0a3070	-0.5398016
57	0xbd051673	-0.032492112
58	0xbec50f82	-0.38488394
59	0xbeb5e6e7	-0.35527727
60	0xbf04fda5	-0.5194953
61	0xbeac31b8	-0.33631682
62	0xbebe1359	-0.37124136
63	0xbe39bb67	-0.18137895
64	0xbe91ad10	-0.2845235
65	0xbefe2d09	-0.49643734
66	0xbbfdd945	-0.007746848
67	0xbea73128	-0.3265469
68	0xbeb56f23	-0.35436353
69	0xbf3cf324	-0.73808503
70	0xbeaa8678	-0.33305717
71	0xbe95a216	-0.29225224
72	0xbf08e938	-0.53480864
73	0xbf08187d	-0.53162366
74	0xbf01c05f	-0.5068416
75	0xbe8b117b	-0.27161774
76	0xbc37b55c	-0.011212673
77	0xbf057dbd	-0.52144986
78	0xbe9ca30d	-0.30593148
79	0xbee3e6e5	-0.44512096
80	0xbf12801e	-0.5722674
81	0xbe482d69	-0.19548573
82	0xbf05bd00	-0.52241516
83	0xbf0a1ec1	-0.53953177
84	0xbef2ee97	-0.47447655
85	0xbedf48c9	-0.43610218
86	0xbe500463	-0.20314173
87	0xbf210271	-0.6289435
88	0xbee9a9dc	-0.45637405
89	0xbf490518	-0.785234
90	0xbe55b6a2	-0.2087045
91	0xbe6cea42	-0.23136237
92	0xbe754df6	-0.23955521
93	0xbeb20eca	-0.34776908
94	0xbf08d7a2	-0.5345403
95	0xbf2a2690	-0.6646509
96	0xbf311e25	-0.6918662
97	0xbed8611b	-0.42261586
98	0xbee32bbc	-0.44369304
99	0xbf3f49f5	-0.74722224
100	0xbf0d6829	-0.5523706
101	0xbf09ecd4	-0.53876996
102	0xbe864c24	-0.26229966
103	0xbf18ef9f	-0.5974063
104	0xbeb03918	-0.3441856
105	0xbea5d3d6	-0.3238818
106	0xbeeaa097	-0.45825645
107	0xbe0c50ea	-0.13702741
108	0xbe982a11	-0.29719594
109	0xbe8d342a	-0.2757886
110	0xbf0fc68f	-0.5616235
111	0xbda51411	-0.08060468
112	0xbf5a6dbb	-0.85323685
113	0xbea78902	-0.32721716
114	0xbf02ff7b	-0.5117108
115	0xbe6c0b96	-0.23051295
116	0xbedb4d55	-0.42832437
117	0xbf186d02	-0.5954133
118	0xbf438802	-0.76379406
119	0xbedd1138	-0.431772
120	0xbef3e490	-0.47635317
121	0xbf043a01	-0.51651007
122	0xbeb056fb	-0.3444136
123	0xbe8c4639	-0.27397326
124	0xbf8f91fb	-1.1216425
125	0xbe966ccd	-0.29379883
126	0xbf049ef7	-0.5180506
127	0xbdf920a9	-0.121644326
128	0xbe0bd2ed	-0.1365468
129	0xbd884c52	-0.06655182
130	0xbd1cab13	-0.038249087
131	0xbde43654	-0.11143175
132	0xbb76aa01	-0.0037637951
133	0x3e33b083	0.17547803
134	0x3dd99f7d	0.10626123
135	0xbe66593d	-0.22494979
136	0x3e2dbf13	0.1696742
137	0xbd96caaa	-0.07362874
138	0xbcbbdc1b	-0.022932103
139	0xbdab51b8	-0.08365196
140	0xbe84fec8	-0.25975633
141	0x3d324585	0.04352333
142	0x3db90023	0.09033229
143	0x3e173485	0.14766128
144	0xbdd491ea	-0.103793934
145	0x3e0527f8	0.13003528
146	0x3def5e06	0.116878554
147	0xbc9bcdf8	-0.019019112
148	0xbd8367e6	-0.064163014
149	0x3e95120c	0.2911533
150	0xbe86f8f0	-0.263618
151	0x3d2b476e	0.041816168
152	0xbc9ed07d	-0.019386524
153	0xbbc384ef	-0.0059667747
154	0xbdd82a93	-0.105549954
155	0xbc2afdda	-0.0104364995
156	0x3d45bdce	0.048276715
157	0xbca2c98f	-0.019871501
158	0x3cfdcd1d	0.030981595
159	0x3e07932b	0.13239734
160	0x3c6f3aab	0.01460139
161	0xbe06472d	-0.13113089
162	0x3dd6f450	0.10495818
163	0xbefdd412	-0.4957586
164	0x3e88e9c0	0.26740837
165	0x3dbba584	0.09162429
166	0xbe7c0c5d	-0.24614091
167	0x3e439cfe	0.19102857
168	0xbd9c2a19	-0.07625217
169	0xbdcc2b1f	-0.09969162
170	0xbe5ca1ed	-0.21546145
171	0x3e03a747	0.1285678
172	0xbceaa685	-0.028643856
173	0x3e04b946	0.12961301
174	0xbd4546a7	-0.048163082
175	0xbd993adb	-0.07481929
176	0x3bb5942f	0.0055413465
177	0xbde9716c	-0.11398587
178	0x3e25dae6	0.16196784
179	0xbe2a796f	-0.16647886
180	0xbe465995	-0.1937011
181	0xbe897337	-0.26845714
182	0xbdb53ea6	-0.0884984
183	0xbe508151	-0.2036183
184	0xbc138b28	-0.009005345
185	0x3e97c76f	0.29644343
186	0xbdd8683e	-0.105667576
187	0x3db079cf	0.08616983
188	0xbdc67276	-0.096898004
189	0xbd8c1dee	-0.06841646
190	0x3d7412c7	0.05958822
191	0xbeb6734b	-0.35634837
192	0x3d541b15	0.05178364
193	0xbe0333a0	-0.12812662
194	0x3e61e354	0.22059375
195	0xbdd5ac50	-0.104332566
196	0xbd9b255e	-0.075754866
197	0x3a888c68	0.0010417821
198	0xbe17fa66	-0.14841613
199	0x3dfd6763	0.12373235
200	0xbd01cadf	-0.031687614
201	0xbdb655e7	-0.08903103
202	0xbdd1d3ae	-0.10245453
203	0xbd477154	-0.048692062
204	0xbe812807	-0.2522585
205	0xbd00ecc2	-0.03147579
206	0x3db2a5ca	0.08723028
207	0xbe08fc4e	-0.13377497
208	0xbd5f0877	-0.054451432
209	0xbe3f30c6	-0.1867095
210	0x3d7f1725	0.06227793
211	0x3e251663	0.16121821
212	0x3e395fe4	0.18102986
213	0xbe4fbc45	-0.20286663
214	0xbe5ef367	-0.21772538
215	0x3df29a07	0.11845785
216	0xbdef809d	-0.11694453
217	0x3d5099ca	0.050927915
218	0xbdb71d67	-0.08941155
219	0x3d22dd8a	0.039762057
220	0xbe1d58c4	-0.15365893
221	0x3d4a660e	0.049413733
222	0xbdbba00c	-0.09161386
223	0xbcfa1605	-0.030528078
224	0xbd67b1b4	-0.056565955
225	0x3eafbf94	0.3432585
226	0x3c92ab17	0.017903848
227	0xbd238ac0	-0.039927244
228	0xbc31f875	-0.010862459
229	0xbd0c8e26	-0.03431525
230	0xbdf7364b	-0.120709024
231	0xbdbee406	-0.09320836
232	0xbc145d0e	-0.009055389
233	0x3d31853f	0.043339964
234	0x3c7d879c	0.015474226
235	0xbd603ce5	-0.054745574
236	0xbdecf8ac	-0.11570868
237	0xbdd8f7ac	-0.10594115
238	0x3de0b365	0.10971717
239	0xbe1f9847	-0.15585433
240	0x3dcc78a4	0.09983948
241	0x3cff0e0d	0.03113463
242	0xbe36afe7	-0.17840539
243	0x3b7fcefe	0.003903329
244	0xbe9812fa	-0.29701978
245	0xbe085be3	-0.13316302
246	0xbd8a909a	-0.06765862
247	0xbd081c83	-0.033230316
248	0xbd1c0c11	-0.038097445
249	0xbcaa7f16	-0.020812552
250	0x3dcacfa5	0.09902886
251	0x3e4d981b	0.20077555
252	0x3d38df8f	0.045135077
253	0xbeaaf4c0	-0.33389854
254	0xbdde41a7	-0.10852366
255	0x3ca30290	0.019898683

encoder.bias_hh_l0 f4 [512]
0	0xbf020f5c	-0.50804687
1	0xbf04bf0c	-0.51854014
2	0xbf0e8fd2	-0.556882
3	0xbf213931	-0.6297789
4	0xbee598a7	-0.44843027
5	0xbdd7b21d	-0.10532019
6	0xbf80cbb9	-1.0062171
7	0xbf092721	-0.5357533
8	0xbf67a255	-0.90482074
9	0xbee421fd	-0.4455718
10	0xbf265dd3	-0.64986914
11	0xbf1e1a7d	-0.6175917
12	0xbe2f5d24	-0.17125374
13	0xbf315598	-0.6927123
14	0xbeb10ab4	-0.34578478
15	0xbf6758bd	-0.9036978
16	0xbebb2440	-0.36551094
17	0xbe2cf934	-0.16891938
18	0xbe45271a	-0.19253197
19	0xbee4c426	-0.446809
20	0xbee2fd06	-0.44333667
21	0xbf965a2d	-1.174627
22	0xbedb5b0c	-0.428429
23	0xbed94b36	-0.42440194
24	0xbed5156c	-0.41617906
25	0xbee73b1a	-0.45162278
26	0xbf25ae79	-0.6471935
27	0xbe5d0b13	-0.21586256
28	0xbf91dc6c	-1.1395392
29	0xbe80a4b4	-0.2512566
30	0xbf89a299	-1.0752746
31	0xbf72cf39	-0.94847447
32	0xbef7bd8b	-0.48386797
33	0xbeda70bb	-0.42664132
34	0xbee33fc9	-0.44384602
35	0xbf5d70fd	-0.8650053
36	0xbeabb826	-0.33538932
37	0xbf3388a8	-0.70130396
38	0xbe9a3c2f	-0.3012404
39	0xbf8ee967	-1.1164979
40	0xbf3a24d5	-0.7271245
41	0xbec9b145	-0.39393058
42	0xbf2c248b	-0.6724326
43	0xbe7a2385	-0.24427612
44	0xbeaf8052	-0.34277588
45	0xbee904cd	-0.45511475
46	0xbf37069b	-0.71494454
47	0xbf1f7240	-0.62283707
48	0xbf5b1c3f	-0.85589975
49	0xbdfa92b6	-0.12235014
50	0xbf691f52	-0.91063416
51	0xbf074911	-0.52845865
52	0xbe02514a	-0.12726322
53	0xbeae2834	-0.34015048
54	0xbe98fa22	-0.29878336
55	0xbe93fb2b	-0.28902563
56	0xbf231fc4	-0.63720345
57	0xbda19e1c	-0.07891485
58	0xbec344e5	-0.381385
59	0xbef4908b	-0.47766528
60	0xbf132d74	-0.5749123
61	0xbeb56574	-0.35428965
62	0xbecd371c	-0.40081108
63	0xbe6e9fa2	-0.23303083
64	0xbea557e4	-0.32293618
65	0xbf107f71	-0.5644446
66	0x3dfc9ea3	0.12334945
67	0xbed7b346	-0.42128962
68	0xbec30080	-0.3808632
69	0xbf1d0322	-0.61332905
70	0xbeaed8bd	-0.34149733
71	0xbe571782	-0.21005061
72	0xbf0b5ad6	-0.5443548
73	0xbee2841f	-0.44241425
74	0xbed73e52	-0.42039734
75	0xbe8a494b	-0.27009043
76	0xbd131542	-0.035908945
77	0xbee41a0e	-0.44551128
78	0xbeabe657	-0.33574173
79	0xbec262d4	-0.37966025
80	0xbf09454f	-0.5362138
81	0xbe7926c1	-0.2433119
82	0xbf05332e	-0.5203122
83	0xbf03378f	-0.5125665
84	0xbef7da3f	-0.48408696
85	0xbee42273	-0.44557533
86	0xbe5bd1bd	-0.21466728
87	0xbf30a41b	-0.69000405
88	0xbeb10439	-0.34573534
89	0xbf412ed9	-0.7546211
90	0xbe14d5fb	-0.14534752
91	0xbe861b8a	-0.26192886
92	0xbe856103	-0.26050577
93	0xbec91f3d	-0.39281645
94	0xbec98378	-0.39358115
95	0xbf337e47	-0.7011456
96	0xbf458de5	-0.7716964
97	0xbf054ceb	-0.5207049
98	0xbe945864	-0.28973687
99	0xbf35c9a2	-0.7101079
100	0xbeff4860	-0.49859905
101	0xbef603b2	-0.48049694
102	0xbe8f1c76	-0.279514
103	0xbf018009	-0.5058599
104	0xbef073ef	-0.4696345
105	0xbea777fb	-0.32708725
106	0xbf04c58c	-0.5186393
107	0xbe4ae105	-0.198124
108	0xbe53ef01	-0.20696642
109	0xbec337ae	-0.38128418
110	0xbedf2ba2	-0.43587977
111	0xbe606c99	-0.21916427
112	0xbf3e37ca	-0.7430388
113	0xbebf827d	-0.37404242
114	0xbec2d59a	-0.3805359
115	0xbe973a13	-0.29536495
116	0xbe9840e9	-0.29737023
117	0xbf0933fd	-0.5359495
118	0xbf2e637d	-0.6812056
119	0xbec39844	-0.38202107
120	0xbed120d1	-0.4084535
121	0xbeff2015	-0.49829164
122	0xbeb2d1d2	-0.34925705
123	0xbe8b2d29	-0.27182892
124	0xbf8e82d4	-1.1133676
125	0xbe9bb414	-0.30410826
126	0xbed09e97	-0.40745994
127	0xbe0b0989	-0.13577856
128	0xbdce98f2	-0.10087766
129	0x3d8ffc25	0.07030515
130	0xbd709e29	-0.058744583
131	0xbe17d2ae	-0.14826462
132	0x3cee4a83	0.029088264
133	0x3e015a5d	0.12632127
134	0x3dee547c	0.11637208
135	0xbdd514a2	-0.10404326
136	0x3e4f641f	0.20253037
137	0xbe544f7b	-0.20733444
138	0x3db06029	0.08612091
139	0xbd1812a9	-0.03712717
140	0xbe75f8dc	-0.24020714
141	0x3c245284	0.010029439
142	0x3e792b4b	0.24332921
143	0x3ce5424f	0.02798572
144	0xbd9b82b5	-0.0759329
145	0x3ce98d2c	0.028509699
146	0x3d4ffeb1	0.050780002
147	0xbb609f8e	-0.003427479
148	0xbd8f74f0	-0.07004726
149	0x3ea169b4	0.31525958
150	0xbe51b119	-0.20477714
151	0xbd3c9a4c	-0.046045586
152	0xbd88a409	-0.06671912
153	0xbde80d90	-0.11330712
154	0xbe3ac3f9	-0.1823882
155	0x3e043f79	0.12914838
156	0x3dd67a46	0.104725406
157	0x3d94ae9d	0.07259867
158	0x3da0a2af	0.078435294
159	0x3db4903b	0.08816572
160	0xbd05f6e5	-0.03270616
161	0xbe01a02c	-0.12658757
162	0x3e4a6766	0.19766006
163	0xbf05ccb9	-0.52265507
164	0x3e8865d1	0.2664018
165	0x3e019e50	0.12658048
166	0xbe8476c1	-0.25871852
167	0x3e1e7887	0.15475665
168	0xbca9ce41	-0.020728232
169	0xbc17895a	-0.009249056
170	0xbe5e3b2f	-0.21702264
171	0x3e1fc684	0.15603071
172	0xbd304eda	-0.04304395
173	0x3e034e21	0.12822773
174	0xbd52e313	-0.051486086
175	0xbe0fd3ef	-0.1404569
176	0x3dfd7029	0.123749085
177	0xbe036a8f	-0.12833618
178	0x3d59c8f2	0.053170152
179	0xbd075bea	-0.03304664
180	0xbde6775b	-0.11253234
181	0xbe3bab62	-0.18327096
182	0xbdc1ce82	-0.09463216
183	0xbe1e6278	-0.1546725
184	0xbd1fdf7f	-0.0390315
185	0x3e9426eb	0.28935942
186	0xbdc781a3	-0.09741523
187	0xbc476db5	-0.012172152
188	0xbcef64df	-0.029222904
189	0xbd27dc85	-0.04098179
190	0x3de482e3	0.11157777
191	0xbeac2e92	-0.3362928
192	0xbcb64b61	-0.02225274
193	0xbe02d686	-0.12777147
194	0x3e620508	0.22072232
195	0xbdd8c236	-0.10583918
196	0xbdee3605	-0.11631397
197	0x3ccbb7ae	0.024867859
198	0xbe528674	-0.20559102
199	0x3d359fd8	0.044341892
200	0xbe30d6be	-0.17269418
201	0xbe1f99ef	-0.15586065
202	0xbe3d6d47	-0.18498717
203	0x3d6de432	0.058078952
204	0xbe7c5d22	-0.24644902
205	0x3d1e9a66	0.038721465
206	0x3dc6ab35	0.09700624
207	0xbdd37419	-0.10324878
208	0x3cb9cdb3	0.022681093
209	0xbe4f667d	-0.2025394
210	0xbda20362	-0.079108015
211	0x3e14ecd5	0.14543469
212	0x3df0d42d	0.11759219
213	0xbe571bd9	-0.21006717
214	0xbe0cb94e	-0.13742563
215	0x3d77eed8	0.060530514
216	0xbd26d939	-0.040734503
217	0x3d5f2ad4	0.054484203
218	0xbe13f71a	-0.1444973
219	0x3c62d08f	0.01384367
220	0xbd9843ba	-0.07434793
221	0xbce6a242	-0.028153542
222	0x3bfafa34	0.007659221
223	0x3dda563d	0.1066098
224	0xbd38b0d9	-0.04509053
225	0x3ebc7cf8	0.36814094
226	0xbd6aadca	-0.057294644
227	0xbd4bfaaa	-0.0497996
228	0xbe06e2f0	-0.13172507
229	0xbd3908ac	-0.045174286
230	0xbbba6e4a	-0.005689417
231	0xbd21181f	-0.039329644
232	0xbdc6ef78	-0.09713644
233	0x3d2e3c64	0.04253806
234	0x3d5eb548	0.054372102
235	0x3c4b5225	0.0124097215
236	0xbdb51972	-0.08842744
237	0x39d34b73	0.0004030127
238	0x3cfd9d50	0.030958802
239	0xbc576ef6	-0.013149014
240	0xba088bf4	-0.0005208843
241	0xbd8f5b5e	-0.06999849
242	0xbe06e400	-0.13172913
243	0x3d0c6876	0.03427931
244	0xbeac1bd3	-0.33614978
245	0xbccefbbb	-0.025266519
246	0x3d6c15a3	0.057637822
247	0xbadd566e	-0.001688672
248	0xbb8450bf	-0.004037946
249	0x3bc52c19	0.0060172197
250	0x3cf846a7	0.030307127
251	0x3e1165b6	0.14198956
252	0x3e0bdfbd	0.13659568
253	0xbe85eade	-0.26155752
254	0xbcb43768	-0.021999076
255	0x3e006b9c	0.1254105

encoder.weight_ih_l1 f4 [512, 128]
0	0xbe32222d	-0.1739585
1	0x3e585640	0.21126652
2	0xbcb46b3d	-0.022023791
3	0x3e01ed93	0.12688284
4	0xbe714de1	-0.23564865
5	0xbd923521	-0.0713904
6	0x3f4351c5	0.76296645
7	0x3ead1dab	0.33811697
8	0xbeff151a	-0.49820787
9	0x3e259919	0.16171683
10	0xbf1ca081	-0.6118241
11	0x3f106785	0.5640796
12	0xbcce653f	-0.025194762
13	0x3e467c6a	0.19383398
14	0xbe93b803	-0.28851327
15	0xbf42ee24	-0.76144624
16	0xbe27ae1a	-0.16375008
17	0x3eb48b60	0.35262585
18	0x3e153eb1	0.14574696
19	0x3e1eecef	0.1552007
20	0xbe47593b	-0.19467632
21	0x3e9c8a48	0.3057425
22	0x3ee1f2ef	0.44130656
23	0x3ead6e22	0.33873087
24	0xbefc79b0	-0.4931159
25	0xbedea2e3	-0.43483648
26	0x3f0fdf64	0.5620024
27	0xbd926594	-0.07148281
28	0xbf6bf199	-0.92165524
29	0x3cf3d5cb	0.02976503
30	0xbf789795	-0.97106296
31	0xbf6aa485	-0.91657287
32	0xbe8ec968	-0.27888036
33	0x3e932710	0.2874074
34	0x3e2a532c	0.1663329
35	0x3e819dea	0.2531579
36	0x3e50f3a1	0.20405437
37	0xbe9b22ff	-0.30300137
38	0xbe693e2c	-0.22777623
39	0x3f2db716	0.6785749
40	0x3dc11fc6	0.094298884
41	0x3f2cd21b	0.67508096
42	0x3e84b64c	0.2592033
43	0x3e1ebb03	0.15501027
44	0x3eb16501	0.34647372
45	0xbdcbc242	-0.09949161
46	0x3f2bfee2	0.67185795
47	0x3c8ef03e	0.01744854
48	0xbf16657e	-0.58748615
49	0xbc5a478e	-0.013322724
50	0xbf0f1b60	-0.55901146
51	0xbe224108	-0.1584512
52	0xbe0371c2	-0.12836364
53	0xbeed0e9a	-0.46300203
54	0xbc1102fc	-0.008850809
55	0xbe0c3109	-0.1369058
56	0x3f43b5a2	0.76449025
57	0x3ec9adbb	0.39390358
58	0xbda95faa	-0.082701996
59	0x3e5c145b	0.2149214
60	0xbd8a270d	-0.067457296
61	0xbd086492	-0.033299036
62	0x3e1012a0	0.14069605
63	0xbe6fae57	-0.23406349
64	0xbd3b30b8	-0.04570076
65	0xbe08075e	-0.1328406
66	0xbde8ae75	-0.113614
67	0xbedf15de	-0.4357137
68	0xbde47723	-0.11155536
69	0x3e7f03b2	0.24903753
70	0xbf2ffb33	-0.68742675
71	0x3ea7ccca	0.3277343
72	0x3f1b798b	0.60732335
73	0xbe8f289e	-0.27960676
74	0x3ee95d87	0.45579168
75	0x3ed8db2b	0.42354712
76	0xbe83b596	-0.25724477
77	0x3f2ddbe0	0.6791363
78	0xbeb3a72e	-0.35088485
79	0x3e859cbe	0.26096147
80	0x3d8b1ede	0.06792997
81	0x3d607a24	0.054803982
82	0x3d89d1bd	0.067294575
83	0xbe730b00	-0.23734665
84	0x3eb84534	0.35990298
85	0xbecd96bd	-0.40154067
86	0x3e868f7c	0.26281345
87	0x3eb8f709	0.36125973
88	0x3e1cc8bf	0.15310954
89	0x3e58bc17	0.211655
90	0x3e5fe0e2	0.2186313
91	0x3e3f7e82	0.18700603
92	0x3eda5f7a	0.42650968
93	0xbf6a6add	-0.9156931
94	0x3e1d3733	0.15353088
95	0xbf246bc2	-0.64226925
96	0xbef11b02	-0.47090918
97	0xbdbbbcfb	-0.091669045
98	0xbf795748	-0.97398806
99	0xbedb0e07	-0.4278414
100	0x3f111c97	0.5668425
101	0xbcffe2c0	-0.031236053
102	0xbdb887b5	-0.09010259
103	0x3e79ffc4	0.24413973
104	0xbea6eb3c	-0.32601345
105	0x3dc5e6ae	0.09663139
106	0x3ef0cea6	0.4703266
107	0xbeb7cba8	-0.35897565
108	0xbd06794f	-0.032830533
109	0x3ed6c5c2	0.41947752
110	0x3dd52d34	0.104090124
111	0xbe595547	-0.21223937
112	0xbe10c2cf	-0.14136814
113	0xbd033a71	-0.032038156
114	0xbf3f0e9e	-0.7463168
115	0x3dfea5f0	0.12433994
116	0xbc106a6d	-0.008814436
117	0xbeb8f819	-0.36126783
118	0x3e066728	0.13125288
119	0x3d585cb6	0.05282279
120	0xbebe08a1	-0.37115958
121	0xbe41d680	-0.18929482
122	0xbe32537e	-0.17414662
123	0xbe468126	-0.19385204
124	0x3f155c34	0.58343816
125	0xbe399805	-0.18124397
126	0xbd1aa21a	-0.03775225
127	0x3eaf2db7	0.34214565
128	0xbf195003	-0.59887713
129	0xbe13a338	-0.14417732
130	0x3edf268a	0.4358409
131	0x3d57348a	0.05254034
132	0xbd79e4ac	-0.061009094
133	0xbcd07309	-0.025445478
134	0x3ea17893	0.31537303
135	0xbd98df0b	-0.07464417
136	0xbe0675fe	-0.13130948
137	0xbe222102	-0.15832904
138	0xbe8950ba	-0.26819402
139	0x3f0a049d	0.5391329
140	0xbe2fb575	-0.17159064
141	0x3e410895	0.1885093
142	0xbeaedac4	-0.3415128
143	0xbe3aae7b	-0.18230622
144	0x3ee3771f	0.4442682
145	0x39353c18	0.00017283892
146	0x3d80a94c	0.06282291
147	0x3dad67b2	0.08467044
148	0x3d32da76	0.04366537
149	0x3e4f9f84	0.20275694
150	0x3e51b325	0.20478494
151	0xbe5bb28c	-0.21454829
152	0xbec0b404	-0.3763734
153	0xbead7f65	-0.33886257
154	0x3f02b60b	0.51059026
155	0x3ebf94a9	0.37418106
156	0xbd205862	-0.03914679
157	0xbef1ee62	-0.47252184
158	0xbe6dc485	-0.23219498
159	0xbe982b53	-0.29720554
160	0xbeffef06	-0.49987048
161	0xbdddd713	-0.10832038
162	0x3e61f59a	0.22066346
163	0x3eb35e1d	0.3503274
164	0x3e2aa72f	0.16665338
165	0x3e31f2d4	0.17377788
166	0x3e4e1369	0.20124592
167	0x3dffc6f5	0.1248912
168	0x3eac7c56	0.3368861
169	0x3e9df69b	0.30852208
170	0x3ed346ac	0.41264856
171	0x3e6e8e51	0.23296477
172	0x3ec24754	0.37945044
173	0x3e4c3834	0.19943315
174	0x3ee29082	0.44250876
175	0x3e7944de	0.24342677
176	0xbe97c78e	-0.29644436
177	0xbe3032d2	-0.17206886
178	0xbe7f7877	-0.24948297
179	0xbdf990ae	-0.121857986
180	0xbd13e5b3	-0.03610773
181	0xbcc767d7	-0.024341507
182	0x3edb3fe4	0.42822182
183	0xbe94de29	-0.29075745
184	0x3cd83cdd	0.02639621
185	0x3e76886d	0.2407548
186	0xbe8257e5	-0.25457683
187	0x3eb46071	0.3522983
188	0x3ddd6957	0.108111076
189	0xbeaf95cf	-0.34293982
190	0x3e1e6baa	0.15470758
191	0x3e00a864	0.12564236
192	0xbf0d5a5b	-0.55215997
193	0xbe18d021	-0.14923145
194	0xbeb25f41	-0.34838298
195	0xbe00e207	-0.12586223
196	0xbe6eb325	-0.23310526
197	0x3ec20a70	0.37898588
198	0xbd6f247c	-0.058384404
199	0x3ea538be	0.32269853
200	0x3f22af52	0.6354877
201	0xbf01c055	-0.506841
202	0x3f2082ed	0.62699777
203	0x3e789173	0.24274234
204	0xbeb552ef	-0.35414836
205	0x3e214d1c	0.15752071
206	0xbe59f2c0	-0.21284008
207	0x3e49a194	0.19690543
208	0x3d3bd0ee	0.045853548
209	0xbea89e37	-0.32933208
210	0xbe14bdc0	-0.14525509
211	0xbdb83a49	-0.08995492
212	0xbc97783e	-0.018489953
213	0xbec2a77d	-0.38018408
214	0x3edcb947	0.43110105
215	0xbdb176cd	-0.086652376
216	0xbe51931e	-0.20466277
217	0x3ed3f5ea	0.41398555
218	0x3efeffdf	0.4980459
219	0xbd46dbc5	-0.048549432
220	0x3e9ffc59	0.31247213
221	0xbe034f72	-0.12823275
222	0x3d950dd8	0.07278031
223	0xbee9126a	-0.4552186
224	0xbee2664b	-0.44218668
225	0x3e9e025f	0.30861184
226	0xbdd076b9	-0.101788945
227	0xbf7afdd8	-0.98043585
228	0xbd9dc048	-0.0770269
229	0xbe6d2d5a	-0.23161831
230	0xbd893b2c	-0.06700739
231	0x3d3ae282	0.04562617
232	0x3b887a90	0.004165001
233	0xbea5997a	-0.32343656
234	0x3f4314f9	0.76203877
235	0x3da9d3a4	0.0829232
236	0xbd3756d9	-0.04476056
237	0x3ca3bfa0	0.019988835
238	0x3ea10010	0.3144536
239	0x3d7b9010	0.061416686
240	0xbef9a252	-0.48756653
241	0xbebd07ad	-0.3691992
242	0x3c64204e	0.013923718
243	0xbd98f878	-0.07469267
244	0xbf1621e5	-0.5864547
245	0x3ed9f101	0.42566684
246	0x3ed10992	0.40827614
247	0xbe1b65d3	-0.15175562
248	0x3e944765	0.2896072
249	0xbc33a25a	-0.010964001
250	0xbd75b44c	-0.059986398
251	0xbeb47299	-0.3524368
252	0x3e4e2fd1	0.20135428
253	0x3e9a65a2	0.30155665
254	0xbe8fbd0c	-0.2807392
255	0x3ea5b815	0.32367006

encoder.weight_hh_l1 f4 [512, 128]
0	0x3ec9d555	0.39420572
1	0xbeac8f22	-0.33702952
2	0xbeb0287b	-0.34405884
3	0x3e88cb18	0.26717448
4	0xbf18237a	-0.5942913
5	0xbed15bbf	-0.4089031
6	0x3e64848c	0.22316188
7	0x3dd7811b	0.10522672
8	0x3dc36ef1	0.09542645
9	0xbd27297f	-0.040811058
10	0x3d842967	0.06453209
11	0x3ea333d1	0.3187547
12	0x3e9e3b4c	0.30904615
13	0xbd9064c3	-0.07050469
14	0x3e83e671	0.2576175
15	0xbec8f824	-0.39251816
16	0x3d8f44f4	0.06995574
17	0x3e112ef6	0.1417807
18	0xbe7e09da	-0.24808446
19	0x3f186b88	0.5953908
20	0xbcf9ce06	-0.030493747
21	0x3cc289cb	0.023747345
22	0x3e19997f	0.1499996
23	0xbddafeb0	-0.10693109
24	0x3e35208e	0.176882
25	0xbe1c13d0	-0.15241933
26	0x3ba6b08d	0.0050869645
27	0xbc4ca457	-0.012490354
28	0xbe356f3e	-0.17718217
29	0xbe4fcab2	-0.20292166
30	0xbe616436	-0.22010884
31	0x3ea7da3d	0.3278369
32	0xbe350687	-0.17678271
33	0xbe6033fa	-0.21894827
34	0x3ef3327d	0.47499457
35	0xbd8b99ed	-0.068164684
36	0x3e02ce8f	0.12774108
37	0xbf3db4ab	-0.741038
38	0xbebcd6f7	-0.36882755
39	0x3d7cd702	0.061728485
40	0xbea28dfb	-0.31748948
41	0x3ec92c76	0.39291734
42	0x3cac4c83	0.021032577
43	0x3da5a441	0.080879696
44	0xbd90e67f	-0.07075214
45	0x3eac31b1	0.33631662
46	0xbe0b2243	-0.13587289
47	0x3e5483ab	0.20753352
48	0xbe3c42d2	-0.18384865
49	0xbe83e080	-0.25757217
50	0xbd2bc4f1	-0.041935865
51	0xbdd24099	-0.10266227
52	0x3eb74089	0.35791424
53	0x3e2ddad9	0.16978015
54	0xbf07e863	-0.5308897
55	0x3e8c2b23	0.2737666
56	0xbe142298	-0.14466321
57	0x3e0fe6d1	0.14052893
58	0x3d961e84	0.07330039
59	0x3cfdc9df	0.030980049
60	0xbea4ee96	-0.32213277
61	0xbe2ca203	-0.16858678
62	0x3e1e61e2	0.15467027
63	0xbe64a7de	-0.22329661
64	0x3eb44e77	0.35216114
65	0x3eccc0d4	0.39990866
66	0x3dafd50c	0.08585557
67	0x3dbe557c	0.092936486
68	0xbdf3bf23	-0.11901691
69	0x3ebf470e	0.37358898
70	0xbd6c2bed	-0.05765908
71	0x3ed4bd7e	0.4155082
72	0x3ec0324f	0.37538382
73	0x3d3bec68	0.04587975
74	0x3dd23b15	0.10265175
75	0xbb9d3e19	-0.0047986624
76	0x3e09b760	0.13448858
77	0x3def3bca	0.11681326
78	0xbd12dffe	-0.035858147
79	0x3e3659f0	0.17807746
80	0xbed850d4	-0.42249167
81	0xbf4c1cf1	-0.7973166
82	0xbea4f1ac	-0.3221563
83	0xbe00c668	-0.12575686
84	0x3e3dbdbb	0.18529408
85	0x3ed3b221	0.4134684
86	0xbdf87efa	-0.12133594
87	0x3ec6f4bd	0.38858595
88	0xbe8426d6	-0.2581088
89	0xbe679543	-0.22615533
90	0xbe83e7f6	-0.2576291
91	0x3e1280e0	0.14306974
92	0xbd257b9c	-0.040401086
93	0xbdb46aa4	-0.088094026
94	0x3df20562	0.11817433
95	0x3eb7d0df	0.35901543
96	0x3e334e41	0.1751032
97	0xbea53c23	-0.32272443
98	0x3bda6bb2	0.0066656703
99	0xbe22ba9c	-0.15891498
100	0x3eff0552	0.49808747
101	0xbe0ea6a7	-0.1393076
102	0xbe56b4b2	-0.20967367
103	0xbc99add4	-0.018759646
104	0xbe0bd700	-0.13656235
105	0x3e0bd338	0.13654792
106	0xbe05b4d6	-0.13057265
107	0xbdbb108b	-0.09134015
108	0x3a0dd72f	0.0005410788
109	0xbc7199e6	-0.014746165
110	0x3b313253	0.0027038052
111	0x3e862136	0.26197213
112	0xbdd021ef	-0.10162722
113	0x3dce9229	0.100864716
114	0xbd94b6e6	-0.072614476
115	0x3df72565	0.12067679
116	0x3d591b0a	0.053004302
117	0xbf25d3e1	-0.64776427
118	0xbf3bbd84	-0.7333605
119	0x3eb92f62	0.36168963
120	0xbee99d0f	-0.4562764
121	0xbe5c3877	-0.21505915
122	0x3e44eb2b	0.19230334
123	0x3f0e4c89	0.55585533
124	0xbe5f036a	-0.21778646
125	0xbd078f8f	-0.033095893
126	0x3e34787d	0.17624088
127	0xbe3e52bf	-0.18586253
128	0x3f06876e	0.525504
129	0xbde0932a	-0.10965569
130	0x3e5eef65	0.2177101
131	0x3e686b32	0.22697142
132	0xbe7bb7a6	-0.24581775
133	0xbd49479c	-0.049140558
134	0x3ea95fb1	0.3308082
135	0xbd95e94a	-0.07319887
136	0x3eba287c	0.36359012
137	0xbe622d61	-0.22087623
138	0x3dc1edff	0.09469222
139	0xbf21314c	-0.62965846
140	0xbf55fe8a	-0.8359152
141	0xbf9a9c58	-1.2078962
142	0xbe001787	-0.12508975
143	0x3d946c4b	0.07247218
144	0x3ebe9cf2	0.37229115
145	0x3e7bb561	0.2458091
146	0xbe5bfb9e	-0.21482703
147	0xbe500747	-0.20315276
148	0xbe151ff5	-0.14562972
149	0x3e1956b0	0.14974475
150	0x3e1af084	0.15130812
151	0x3e8fd168	0.28089452
152	0xbeb45645	-0.35222068
153	0x3e81e363	0.25368795
154	0xbe5ac5eb	-0.21364562
155	0xbdb94aaa	-0.09047444
156	0x3e9defc6	0.30846995
157	0x3ec40fb3	0.38293228
158	0x3f0afbf9	0.5429073
159	0x3eb4a25a	0.35280114
160	0xbeefa1d3	-0.4680315
161	0x3d7f9b4e	0.06240397
162	0x3ec82f43	0.39098558
163	0xbda21aa5	-0.07915238
164	0xbcf54eae	-0.029944744
165	0xbe92d875	-0.2868077
166	0xbe629069	-0.221254
167	0x3f06ac61	0.5260678
168	0xbe1ee1e0	-0.15515852
169	0x3eeb903f	0.4600849
170	0xbe9a208f	-0.30102965
171	0x3c926c39	0.01787387
172	0x3e52bf5f	0.20580815
173	0x3e153f40	0.14574909
174	0xbe460f1b	-0.193417
175	0x3e5701cd	0.2099678
176	0x3e02fd93	0.12792043
177	0xbec2297d	-0.37922278
178	0x3f13f0bd	0.5778921
179	0xbdd660d3	-0.104676865
180	0x3db17564	0.086649686
181	0x3ea58556	0.3232829
182	0xbe55fedd	-0.20898004
183	0x3ec7bc9f	0.39011094
184	0xbeb76a09	-0.35823086
185	0x3dcd05c9	0.10010869
186	0x3dcd76c0	0.100324154
187	0x3e80c48b	0.2514995
188	0xbebc5b99	-0.36788633
189	0xbb8c0ac9	-0.0042737466
190	0x3e833310	0.25624895
191	0x3dc6f5ac	0.09714827
192	0x3ef4cc7e	0.47812265
193	0x3df33bb6	0.11876623
194	0x3e1e5a39	0.15464105
195	0x3e98cca4	0.29843628
196	0xbe695e51	-0.22789885
197	0x3dba594b	0.090990625
198	0x3e7930f1	0.24335076
199	0x3e10f417	0.14155613
200	0x3ee01e1e	0.43772978
201	0x3e3730dc	0.17889732
202	0xbe131335	-0.14362796
203	0x3d7d48d1	0.06183702
204	0xbe6ed6bd	-0.23324104
205	0x3ed81709	0.42205074
206	0xbe2936cf	-0.16524814
207	0x3ef5526c	0.47914445
208	0x3e9dd267	0.30824587
209	0x3de2cf16	0.11074655
210	0xbe625201	-0.22101595
211	0xbe44b12e	-0.19208214
212	0xbdc4e27a	-0.096135095
213	0x3ec52f94	0.38512862
214	0x3e07eb6a	0.13273397
215	0x3f062d0a	0.52412474
216	0x3f465138	0.7746768
217	0x3f275ce7	0.6537613
218	0xbe9729bf	-0.29524037
219	0x3f04518f	0.5168695
220	0xbd04b35a	-0.032397605
221	0xbef69293	-0.48158702
222	0x3e3364e0	0.1751895
223	0xbed67d12	-0.41892296
224	0x3f2febb3	0.68719023
225	0xbe89a6df	-0.26885125
226	0xbd838dc9	-0.06423528
227	0x3abee752	0.0014564788
228	0x3b411334	0.002946091
229	0xbe4ccb66	-0.19999465
230	0xbecc4e4c	-0.39903486
231	0x3e19f674	0.1503542
232	0xbe4b181d	-0.19833417
233	0x3df7d4ce	0.12101136
234	0x3ec987bf	0.3936138
235	0x3f4a614c	0.79054713
236	0xbe5d389d	-0.21603628
237	0xbea70a4c	-0.32625043
238	0x3d5feaae	0.054667167
239	0x3eff5aa4	0.4987384
240	0x3e3f5ab6	0.18686947
241	0x3e90866a	0.2822755
242	0x3e914ac6	0.2837736
243	0xbe4a9929	-0.19784988
244	0x3d81be73	0.063351534
245	0xbd208694	-0.039190844
246	0xbd34d007	-0.044143703
247	0x3ed48617	0.41508552
248	0xbd225686	-0.039633296
249	0xbe9bf801	-0.3046265
250	0x3ebc751c	0.36808097
251	0x3ed35f17	0.41283485
252	0x3dd56a97	0.10420721
253	0xbe9f8905	-0.31159225
254	0xbea01573	-0.31266364
255	0xbf074059	-0.5283256

encoder.bias_ih_l1 f4 [512]
0	0xbe5128d8	-0.20425737
1	0xbe426ddf	-0.18987225
2	0xbe8790f5	-0.2647778
3	0xbc40652b	-0.01174287
4	0xbe3d7965	-0.1850334
5	0xbe48393b	-0.19553082
6	0xbe650d7d	-0.22368427
7	0xbf3c174a	-0.73473036
8	0xbe96bfa9	-0.294431
9	0xbdd3ba3a	-0.10338254
10	0x3dd9e901	0.10640145
11	0xbf08e1ee	-0.5346974
12	0x3dd98d62	0.1062267
13	0xbea57e67	-0.32323
14	0xbeab8a19	-0.33503798
15	0xbe4335ae	-0.19063446
16	0xbf2c4d96	-0.67305887
17	0xbe810e4a	-0.25206214
18	0xbd88d615	-0.06681458
19	0xbe8829e1	-0.2659445
20	0xbf07b619	-0.53012234
21	0xbf2088b1	-0.62708575
22	0xbeb6f276	-0.35731858
23	0xbe2c3f5d	-0.16821046
24	0xbd805859	-0.06266851
25	0xbe88c9c2	-0.2671643
26	0xbe2a5e16	-0.16637453
27	0xbe93681c	-0.28790367
28	0xbef6a236	-0.48170632
29	0xbede1f76	-0.43383378
30	0xbf03de38	-0.51510954
31	0xbef3b9a2	-0.47602564
32	0xbd92799c	-0.071521014
33	0xbe956f1c	-0.29186332
34	0xbef08444	-0.4697591
35	0xbd03e490	-0.032200396
36	0xbea374b0	-0.31924963
37	0xbe98d4c4	-0.29849827
38	0xbd7e08ab	-0.062019985
39	0xbe2ebe1c	-0.17064708
40	0xbeaedc44	-0.34152424
41	0x3d23ba35	0.039972503
42	0xbf1ae232	-0.60501397
43	0xbed08f13	-0.40734157
44	0xbe90c3f1	-0.2827449
45	0xbe8659f1	-0.26240495
46	0xbea12dcb	-0.3148025
47	0xbec559f4	-0.3854519
48	0xbe7557e8	-0.23959315
49	0xbf05c296	-0.5225004
50	0xbed76acc	-0.42073667
51	0xbee5f38b	-0.4491237
52	0xbf078fc5	-0.5295375
53	0xbe97aa0b	-0.2962192
54	0xbe5e18a7	-0.21689092
55	0xbecc642b	-0.39920172
56	0xbf15b315	-0.5847638
57	0xbe9641c5	-0.29347053
58	0xbeacdc5c	-0.3376187
59	0xbf275583	-0.65364856
60	0xbe861da9	-0.26194504
61	0xbedfee62	-0.4373656
62	0xbeaa668e	-0.33281368
63	0xbe10a65d	-0.14125963
64	0xbe0566c7	-0.13027488
65	0x3e84bf70	0.25927305
66	0xbed0bf35	-0.4077088
67	0xbf0b6b5a	-0.5446068
68	0xbea83d86	-0.3285944
69	0xbe853561	-0.26017287
70	0xbeb863e2	-0.36013705
71	0xbebd2eee	-0.36949867
72	0xbea300e0	-0.31836605
73	0xbdccb44d	-0.09995327
74	0xbe73479a	-0.23757783
75	0xbea8cdcf	-0.3296952
76	0xbf0f9729	-0.5609003
77	0xbefb2421	-0.49051002
78	0xbe7052e1	-0.23469116
79	0xbea7b92f	-0.3275847
80	0xbe51626d	-0.20447703
81	0xbeec879b	-0.4619721
82	0xbeff8699	-0.49907377
83	0xbedb9938	-0.42890334
84	0xbeaf3f51	-0.34227994
85	0xbe769627	-0.24080716
86	0xbe080572	-0.13283327
87	0xbe8636c7	-0.26213667
88	0xbe9bedce	-0.30454868
89	0x3eadb0e7	0.33924028
90	0xbf08dd11	-0.5346232
91	0xbe87416e	-0.26417106
92	0xbea2c9e5	-0.31794658
93	0x3e347c87	0.17625628
94	0xbe94c45f	-0.2905607
95	0xbe5657df	-0.20931958
96	0xbea30b88	-0.31844735
97	0xbe9582fd	-0.292015
98	0xbd7f1485	-0.06227543
99	0xbf05b3af	-0.522273
100	0xbedc4873	-0.43024024
101	0xbe606710	-0.21914315
102	0xbdecfc30	-0.115715384
103	0xbedbce20	-0.42930698
104	0xbe3156b7	-0.17318235
105	0xbe5b0244	-0.21387583
106	0xbea13bcd	-0.31490937
107	0xbefbf7bb	-0.4921244
108	0xbeb3954d	-0.35074845
109	0xbebd4da3	-0.36973295
110	0xbec96a68	-0.39338994
111	0xbeaedf65	-0.34154812
112	0xbe8f1841	-0.27948192
113	0xbee07e2e	-0.43846267
114	0xbe808ca7	-0.2510731
115	0xbed5fb0a	-0.4179309
116	0xbee64db1	-0.4498115
117	0xbe701819	-0.23446693
118	0xbe4fa075	-0.20276053
119	0xbea2e5a5	-0.3181583
120	0xbe89fe03	-0.26951608
121	0x3e14f56f	0.1454675
122	0xbe7219d2	-0.23642662
123	0xbe37a61c	-0.1793446
124	0xbf1e3ae0	-0.61808586
125	0xbec16aae	-0.37776703
126	0xbeb8e903	-0.36115274
127	0xbf304b97	-0.6886534
128	0x3e35f88a	0.17770591
129	0x3e8381b0	0.2568488
130	0x3ce938ce	0.02846947
131	0x3e7165aa	0.23573938
132	0x3e20cc98	0.15703046
133	0xbe26b1c5	-0.16278751
134	0x3d27e98d	0.040994216
135	0x3f286d8b	0.6579215
136	0x3e03db04	0.12876517
137	0x3e81a4ed	0.2532114
138	0x3e88f7d2	0.26751572
139	0x3e1c7995	0.15280755
140	0x3dc855a2	0.09781958
141	0xbd7cb2f6	-0.061694108
142	0x3da0649d	0.078316905
143	0xbc96acb2	-0.018392894
144	0xbcf68397	-0.030092044
145	0x3e8737b8	0.26409698
146	0x3e5dbb27	0.21653424
147	0xbe21eb2d	-0.15812369
148	0x3ded4727	0.11585837
149	0x3d09f88e	0.033684306
150	0x3dbdca3c	0.09267089
151	0x3e7569ad	0.23966093
152	0x3e6dff76	0.23241982
153	0xbeddda4c	-0.4333061
154	0x3d638114	0.05554302
155	0xbdc5a9f0	-0.09651554
156	0x3f0943a5	0.5361884
157	0x3d9287c0	0.071547985
158	0x3ecc98ab	0.39960226
159	0x3e219438	0.15779197
160	0xbd848b9f	-0.06471943
161	0x3e89053d	0.2676181
162	0x3efb0cc1	0.49033168
163	0x3e9ead30	0.30991507
164	0x3ed99811	0.4249883
165	0xbdfda1ea	-0.12384398
166	0xbe6de7b0	-0.23232913
167	0x3b3fffbf	0.0029296724
168	0x3d32d799	0.04366264
169	0x3eafbfae	0.34325927
170	0x3e93cb9e	0.28866285
171	0x3e813f78	0.25243735
172	0x3df5cc13	0.12001815
173	0x3e822513	0.2541891
174	0x3e72c98b	0.23709695
175	0x3e8919e3	0.26777562
176	0x3e281c66	0.16417083
177	0x3eb8cad7	0.36092255
178	0xbdb3aac2	-0.08772804
179	0x3e8cd26c	0.2750429
180	0x3c0b525c	0.008503523
181	0xbd8e0440	-0.069344044
182	0x3ea7f55e	0.32804388
183	0x3dd3ecac	0.10347876
184	0xbdb0bd4d	-0.08629856
185	0x3dd28ce5	0.1028078
186	0x3de7827e	0.11304186
187	0x3ec1af3e	0.37829012
188	0x3e6f12e3	0.23347048
189	0xbde625f0	-0.11237705
190	0x3ed270bb	0.41101632
191	0x3e6523c4	0.22376925
192	0x3c923d27	0.017851425
193	0x3ea7cdda	0.3277424
194	0x3e952911	0.29132894
195	0x3d792246	0.0608237
196	0x3e52c833	0.20584182
197	0x3d26402f	0.040588554
198	0x3ea39bef	0.31954905
199	0xbdfa2df6	-0.122157976
200	0x3e2c1e41	0.16808416
201	0x3e2d3e2f	0.16918252
202	0xbd6b1aaf	-0.057398494
203	0xbed1b2ac	-0.40956628
204	0x3daa8bb4	0.083274275
205	0x3e81ccc5	0.2535154
206	0xbcee5788	-0.029094473
207	0xbec3679e	-0.3816499
208	0xbe078288	-0.13233387
209	0x3e629612	0.2212756
210	0x3d4e51ba	0.05037091
211	0x3db35142	0.08755733
212	0xbec0ea93	-0.37678966
213	0xbd216c8c	-0.03941016
214	0x3e5f9d12	0.21837261
215	0x3e51e75e	0.20498416
216	0xbdc00e22	-0.093776956
217	0x3e0f6be6	0.14006004
218	0x3de0498e	0.109515294
219	0xbe13207b	-0.14367859
220	0xbd3ab468	-0.045582205
221	0x3e25d601	0.16194917
222	0xbd9733c9	-0.07382924
223	0xbd8685ae	-0.06568466
224	0x3deb911d	0.115022875
225	0x3e674559	0.22585048
226	0x3e957250	0.29188776
227	0xbd4fde63	-0.050749194
228	0x3e0d3150	0.13788342
229	0xbe548348	-0.20753205
230	0x3e3b05e3	0.18263964
231	0xbca93618	-0.020655677
232	0xbc80589d	-0.015667254
233	0xbe1aa14e	-0.15100595
234	0xbe0f4020	-0.13989305
235	0x3cdf817a	0.027283419
236	0x3e278967	0.16361009
237	0xbc152dab	-0.009105126
238	0x3e1b2b92	0.1515334
239	0x3e1e0dbe	0.1543493
240	0xbd1c5213	-0.03816421
241	0xbd9cb87f	-0.07652377
242	0xbe4af8df	-0.198215
243	0x3e93a801	0.28839114
244	0x3d939900	0.07206917
245	0x3d4f9ecd	0.050688554
246	0x3da7ab77	0.08187001
247	0xbe0a085c	-0.13479751
248	0x3eaba2df	0.33522698
249	0x3e313f86	0.17309389
250	0xbdc07147	-0.09396606
251	0x3e9c5882	0.30536276
252	0x3ef8858d	0.4853939
253	0xbe51e5e5	-0.20497854
254	0xbc4e15e6	-0.012578463
255	0x3eaf9555	0.3429362
